MNIST_digit_recognition/mnistV1.pth (torch, 409373 bytes, 4 tensors)

layers.0.weight f4 [128, 784]
0	0x3d02348f	0.031788405
1	0xbb0195b0	-0.0019773059
2	0x3bd01210	0.0063498095
3	0xbca813b3	-0.020517206
4	0x3c109998	0.008825682
5	0x3cae3f5e	0.02127045
6	0xbc3a9286	-0.011387473
7	0xbcb3e6c5	-0.021960625
8	0x3cb37b80	0.021909475
9	0x3ce14676	0.027499419
10	0xbcf334ce	-0.029688265
11	0xbbd29c80	-0.0064273477
12	0x3c9860ec	0.018600903
13	0xbce358e8	-0.027752355
14	0xbc80608c	-0.015671037
15	0xbcae85c3	-0.021304017
16	0x3cd4c928	0.025974825
17	0x3cd67706	0.026179802
18	0xbc6dfe46	-0.014525956
19	0x3c7e0e9c	0.015506413
20	0xbcfe8b98	-0.031072423
21	0x3bf44280	0.0074542165
22	0xbc49dcb2	-0.012320684
23	0xbb0b0a00	-0.0021215677
24	0x3cc96e4a	0.024588723
25	0x3cb15858	0.02164857
26	0x3c8faabe	0.01753747
27	0xbd0e696b	-0.034768503
28	0x3a115400	0.0005543828
29	0x3ccf5dfa	0.025313366
30	0xbd0d9c7f	-0.034573074
31	0xbc90d290	-0.017678529
32	0x3ce85bbe	0.028364059
33	0xbd0c991f	-0.034325715
34	0xbca3fdae	-0.020018425
35	0xbcb74320	-0.022370875
36	0x3c504218	0.0127110705
37	0x3cd2d158	0.025734589
38	0xbc9dacca	-0.019247431
39	0x3ce7193e	0.028210279
40	0x3c9f3d8c	0.019438528
41	0xbc3852dc	-0.011250224
42	0xbd052950	-0.0325101
43	0x3c2a754e	0.010403944
44	0x3c1ba2c1	0.009499253
45	0x3ccaea4a	0.02476992
46	0xbd01c6f3	-0.031683873
47	0x3d021a19	0.03176317
48	0x3cac57ec	0.021038018
49	0xbc46a70e	-0.01212479
50	0xbd113b8e	-0.035457186
51	0xb8e79c00	-0.000110439956
52	0xbbe9471c	-0.0071190726
53	0x3c40b31c	0.011761453
54	0xbc6230b8	-0.013805561
55	0x3c059b70	0.008154735
56	0xbcbbf7ce	-0.02294531
57	0xbd05644d	-0.032566357
58	0x3d0e92c1	0.034807924
59	0xbc0becd8	-0.008540355
60	0xbceb0c41	-0.028692367
61	0xbc0e886a	-0.008699516
62	0x3ce4f5b6	0.027949195
63	0x3c9d149e	0.01917487
64	0xbcb28d48	-0.021795884
65	0xbce11f45	-0.02748073
66	0xbc0a18aa	-0.008428732
67	0x3d0999e7	0.03359404
68	0xbd0c270a	-0.034216918
69	0xbc538047	-0.012909002
70	0xbaf4edbe	-0.0018686575
71	0xbc2dc25b	-0.01060542
72	0x3c2c068e	0.01049961
73	0xba8e98ff	-0.0010879337
74	0x3c4bc5ab	0.012437264
75	0xbc264e47	-0.010150499
76	0x3c79a8e0	0.015238017
77	0x3d0308e1	0.03199089
78	0x3be16aa0	0.006879166
79	0xbc483806	-0.012220388
80	0x3cb2df9e	0.021835145
81	0x3c81443a	0.015779603
82	0xbc5a84b2	-0.013337301
83	0xbb92be38	-0.0044782422
84	0x3c08e348	0.008354969
85	0x3c6f6a84	0.014612798
86	0x3c0c2f14	0.008556146
87	0xbce881c3	-0.028382188
88	0xbcf1ef1c	-0.029532962
89	0x3b96d378	0.0046028458
90	0x3ccdd458	0.025125667
91	0x3c80f707	0.015742792
92	0x398ba8a5	0.00026637796
93	0x3caf840f	0.021425275
94	0xba89e277	-0.0010519762
95	0x3d2bea79	0.041971657
96	0x3c8dbba9	0.017301397
97	0xbce19773	-0.027538037
98	0x39eac5a1	0.00044779203
99	0xbcdc95d7	-0.026926918
100	0x3d8a0a3c	0.06740233
101	0x3d357cce	0.044308476
102	0x3caf8b3c	0.021428697
103	0x3cb5b7bf	0.022182344
104	0xbab2d7c6	-0.0013644628
105	0x3c1a45b0	0.009416029
106	0xbc2c0b97	-0.01050081
107	0x3ce4afe2	0.027915899
108	0xbd0397c0	-0.032127142
109	0xbcca2985	-0.024678001
110	0x3cf79a1e	0.030224856
111	0xbd0540ce	-0.032532506
112	0x3b8839d0	0.0041572824
113	0x3c57dde0	0.013175458
114	0xbc48a20a	-0.012245664
115	0xbcb4be8a	-0.022063512
116	0x3cb82bce	0.022481825
117	0x3ca1cd56	0.019751232
118	0xbd1488f6	-0.03626343
119	0x3cb1b0e9	0.021690803
120	0x3cc3e746	0.02391399
121	0xbb8dae27	-0.004323739
122	0x3c307975	0.010771145
123	0x3d31214b	0.04324464
124	0xbbd4b503	-0.006491305
125	0xbd19f259	-0.037584636
126	0xbb5b9314	-0.0033504413
127	0x3b712c5b	0.003680012
128	0x3b7e2a2a	0.0038782456
129	0xbc8fe86b	-0.01756688
130	0x3c4b832a	0.012421409
131	0x3c6b770e	0.014371647
132	0xbd145acb	-0.0362194
133	0x3c83f99d	0.016110236
134	0xbc1fc004	-0.00975037
135	0xbcef7337	-0.029229743
136	0xbca95377	-0.020669682
137	0xbcf6b4eb	-0.030115565
138	0x3cb3466a	0.021884162
139	0xbbb6a89c	-0.005574299
140	0x3aa36c40	0.0012468174
141	0x3d0c150d	0.034199763
142	0x3be84df0	0.007089369
143	0xbcbaf8b5	-0.02282367
144	0xbbb86edc	-0.00562845
145	0xbc55c6ae	-0.013047857
146	0x3d21df9e	0.0395199
147	0xbd075e86	-0.03304913
148	0xbca7c14c	-0.020477913
149	0xbd148b34	-0.036265567
150	0x3aa0f76e	0.0012280771
151	0xbba51355	-0.005037705
152	0xbcad9e89	-0.02119376
153	0xbc50e779	-0.0127505
154	0xbce37fad	-0.027770841
155	0xbd17f220	-0.037096143
156	0xbd160e45	-0.036634702
157	0x3cfe55a4	0.031046696
158	0x3be31b87	0.0069307717
159	0x3cf80913	0.030277764
160	0xbd22e488	-0.039768726
161	0xbd163e86	-0.03668072
162	0xbbd3d034	-0.0064640287
163	0xbcc3e436	-0.02391253
164	0xbceb91a6	-0.028755974
165	0x3c381a53	0.011236745
166	0x3ac58a8a	0.0015071195
167	0x3cf5c946	0.030003201
168	0x3b861ec8	0.004093025
169	0xbc5b60f2	-0.013389813
170	0xbb91d8c8	-0.004450891
171	0xbd06e3f0	-0.032932222
172	0xbc45518c	-0.012043368
173	0x3c60a84a	0.013711998
174	0xba7c2b31	-0.0009619473
175	0xbd0b81e7	-0.03405943
176	0x3cff2215	0.031144181
177	0x3d254134	0.040345386
178	0xbd44fad4	-0.04809077
179	0x3c03e476	0.008050075
180	0xbd15d7c9	-0.036582742
181	0xbc624cac	-0.013812225
182	0xbd7dff58	-0.062011093
183	0xbc479aa3	-0.012182864
184	0xbbdc21ba	-0.0067178877
185	0x3d0f4a5a	0.034983017
186	0x3bc1ba68	0.005912114
187	0xbc053436	-0.008130124
188	0xbbe994bc	-0.007128326
189	0x3c4b16d0	0.012395576
190	0x3b74ff60	0.003738366
191	0xbc2b9a85	-0.010473852
192	0xbb38c8c7	-0.0028195844
193	0xbd03f3ed	-0.032215048
194	0xbce16eef	-0.027518718
195	0x3bdedae0	0.0068009943
196	0xbd0bb47c	-0.03410767
197	0x3b9d7be8	0.0048060305
198	0x3bb0e938	0.0053988956
199	0xbc7d4a6d	-0.015459639
200	0xbcea8368	-0.028627113
201	0xbc7ba227	-0.015358484
202	0xbcb1b1ef	-0.02169129
203	0xbbcef989	-0.006316368
204	0xbc7dba25	-0.015486275
205	0x38893783	6.543009e-05
206	0x3aadcccd	0.0013259888
207	0xbd492174	-0.04910417
208	0xbd54e893	-0.051979613
209	0xbce3422c	-0.027741514
210	0xbcee1fd1	-0.029067906
211	0xbd0ec29a	-0.034853555
212	0x3c8da752	0.017291699
213	0x3cf97a5b	0.030453851
214	0xbd1f7559	-0.03893027
215	0xbcb7762f	-0.022395222
216	0x3c925a87	0.017865432
217	0x3bd68545	0.0065466487
218	0x3c89a25a	0.016801048
219	0x3c8cb459	0.01717584
220	0xbbaec3de	-0.005333408
221	0x3d079635	0.033102233
222	0xbbcf91dc	-0.0063345265
223	0xbb105230	-0.0022021644
224	0x3a88c420	0.0010434426
225	0x3b81d748	0.003962431
226	0xbccdd410	-0.025125533
227	0x3ce98a93	0.02850846
228	0xbcca1db9	-0.024672376
229	0xbcfaf1db	-0.030632904
230	0x3bf2d6b7	0.00741085
231	0xbd010595	-0.031499464
232	0xba18b622	-0.000582548
233	0x3c78c837	0.015184454
234	0xbd1c58cf	-0.038170632
235	0x3bc57ae8	0.0060266145
236	0x3bb7ec9f	0.005612924
237	0xbcdd48ef	-0.027012317
238	0xbcedf94b	-0.029049536
239	0x3bc6f791	0.0060719927
240	0xbabd8b81	-0.0014461131
241	0xbc5cc390	-0.01347436
242	0xbccd20b7	-0.025040014
243	0xbd084403	-0.033267986
244	0xbd411665	-0.047140498
245	0x3c81059a	0.015749741
246	0x3c74a002	0.014930727
247	0xbd305620	-0.043050885
248	0x3ca7b61f	0.020472584
249	0x3ccc5d07	0.024946703
250	0xbceeb482	-0.029138807
251	0xbc53c50e	-0.0129253995
252	0x3bd34aa8	0.0064481087
253	0xbc04b552	-0.008099871
254	0x3aa6a51d	0.0012714003
255	0xbc9063ce	-0.017625716

layers.0.bias f4 [128]
0	0xbc34dec6	-0.011039441
1	0xbd2f3ff9	-0.04278562
2	0xbdcdca66	-0.1004837
3	0xbc04d6d4	-0.00810786
4	0xbd1a0ebb	-0.037611704
5	0x3dd39d71	0.10332764
6	0xbd0e4aeb	-0.034739416
7	0x3c9766e7	0.018481685
8	0xbc1aac67	-0.009440518
9	0x3d04e430	0.03244418
10	0xbcfa1f82	-0.030532602
11	0x3d71bc00	0.05901718
12	0xbe54090e	-0.20706579
13	0xbc710565	-0.014710759
14	0x3aee9dc8	0.0018204981
15	0x3cae3eca	0.021270175
16	0xbb635f0e	-0.0034694108
17	0x3d0be956	0.034158073
18	0xbcd118f0	-0.025524586
19	0xbdfff4bb	-0.124978505
20	0x3c6e4346	0.014542406
21	0xbc502481	-0.012704016
22	0xbd99a644	-0.07502416
23	0xbe008127	-0.12549268
24	0xbd8b85eb	-0.06812652
25	0x3d51ce1f	0.051221963
26	0xbe341ccf	-0.17589115
27	0xbd84c898	-0.06483573
28	0x3d0e89ce	0.03479939
29	0x3d2c958c	0.042134807
30	0xbcc1d5f2	-0.023661587
31	0xbd3f1094	-0.04664667
32	0xbd308f18	-0.043105215
33	0xbbf04c6c	-0.007333329
34	0x3cc3471b	0.023837617
35	0xbcaed69b	-0.021342566
36	0x3bbfdf79	0.0058554974
37	0x3ba0ef9f	0.0049113776
38	0xbdb854d8	-0.09000558
39	0xbd23ef3e	-0.04002308
40	0xbb94e1bc	-0.004543511
41	0xbe2f73bf	-0.17133997
42	0xbe018150	-0.12646985
43	0xbc8e538d	-0.017373824
44	0xbcdc5e75	-0.02690051
45	0xbc635b9b	-0.013876821
46	0x3d2182bb	0.039431315
47	0xbd6ba079	-0.057526086
48	0xbde02294	-0.10944095
49	0xbd3963eb	-0.045261305
50	0x3d81c80f	0.06336986
51	0xbc11ea97	-0.008906028
52	0xba0efec6	-0.00054548343
53	0x3d6fcc1e	0.05854427
54	0xbbd74926	-0.0065699993
55	0xbdc15f21	-0.094419725
56	0x3d1e3519	0.038624857
57	0xbc54d168	-0.012989379
58	0xbdbcbf75	-0.09216205
59	0xbcbd8534	-0.023134805
60	0x3c8b10bc	0.016975753
61	0xbd8eb55c	-0.06968185
62	0x3d5d535b	0.054034572
63	0xbd1311b7	-0.035905566
64	0xbd22051c	-0.039555654
65	0x3d6697cf	0.05629712
66	0x3d0af9d3	0.033929657
67	0xbd1a49cd	-0.03766804
68	0x3d7008ec	0.05860226
69	0x3d4aa6aa	0.04947535
70	0x3c26cc77	0.010180584
71	0x3d4d338d	0.05009799
72	0x3cba4140	0.022736192
73	0xbd62a5a4	-0.05533375
74	0xbc434c9d	-0.0119201215
75	0xbcc9b8eb	-0.024624309
76	0x3d268bcd	0.04066067
77	0x3d09edb4	0.033673957
78	0xbd26de93	-0.040739607
79	0xbc0de8ec	-0.00866149
80	0xbb98c5a7	-0.004662234
81	0xbb399434	-0.0028317096
82	0xbd867971	-0.06566132
83	0x3e16ce4f	0.14727138
84	0xbb838b11	-0.0040143807
85	0xbdbf23f7	-0.093330316
86	0xbda96743	-0.08271649
87	0xbe1e2320	-0.15443087
88	0xbd1271ac	-0.035752937
89	0x3d7d4d37	0.061841216
90	0xbd1db8fa	-0.038506486
91	0xbc393b1f	-0.0113055995
92	0x3bf8bcbb	0.007590858
93	0xbce8b0c3	-0.028404599
94	0xbe4912e8	-0.19636118
95	0xbdb4ed4b	-0.088343225
96	0xbce0dfcf	-0.02745047
97	0xbcfa736a	-0.030572612
98	0xbdfc5b25	-0.12322072
99	0x3c6f0fe5	0.014591192
100	0x3d4da80f	0.0502091
101	0x3d2f45a3	0.04279102
102	0xbbff66bf	-0.0077942307
103	0xbd04804d	-0.03234892
104	0xbc2882e7	-0.010285116
105	0x3d06aa66	0.03287735
106	0xbe0a540f	-0.13508628
107	0xbd6aba33	-0.05730648
108	0xbcf98596	-0.030459207
109	0x3cb09014	0.021553077
110	0xbde36a25	-0.1110423
111	0xbc494f86	-0.012287026
112	0x3d4031f2	0.04692263
113	0x3d1852af	0.03718823
114	0xbd174eec	-0.0369405
115	0xbda86900	-0.08223152
116	0xbd100921	-0.035164956
117	0xbd8528ba	-0.065019086
118	0x3d48ae6b	0.048994463
119	0x3d91d8b5	0.07121412
120	0x3cdd6500	0.0270257
121	0xbd45f70f	-0.048331317
122	0x3d33f7d3	0.043937515
123	0xbbfee70d	-0.0077790082
124	0xbdb07c23	-0.08617427
125	0x3c7cdca5	0.015433465
126	0xbe0b10ba	-0.135806
127	0xbd223465	-0.03960075

layers.2.weight f4 [10, 128]
0	0xbd09e292	-0.03366334
1	0xbe02dac9	-0.12778772
2	0xbdf44fe3	-0.119293
3	0xbd404b7b	-0.046946984
4	0x3d7ae86b	0.061256807
5	0xbd19bc8b	-0.037533324
6	0xbc77b905	-0.015119796
7	0x3cd76a29	0.026295738
8	0xbd2891b9	-0.041154597
9	0x3d280165	0.041016955
10	0xbd1a1ca2	-0.037624963
11	0xbc9b9950	-0.018994004
12	0xbd08776c	-0.033317015
13	0x3d5b9b9e	0.053615205
14	0x3cb92320	0.022599757
15	0xbc4002ae	-0.011719389
16	0xbd5076b7	-0.050894465
17	0xbd1745e4	-0.036931887
18	0xbcebcc8e	-0.028784063
19	0xbd8d1cc9	-0.06890256
20	0x3c26b3f3	0.010174739
21	0x3c0765c3	0.008264008
22	0x3c107aa9	0.008818307
23	0xbd3c8ada	-0.046030857
24	0x3cc09fe1	0.023513736
25	0xbd771d07	-0.060330417
26	0x3d12b699	0.03581867
27	0xbe0a8dee	-0.13530704
28	0x3e107477	0.14106928
29	0x3bea3490	0.007147379
30	0xbd866817	-0.06562822
31	0xbdc02416	-0.09381883
32	0x3d78d16d	0.0607466
33	0xbc5dfab1	-0.013548539
34	0x3d10100d	0.035171557
35	0x3c3f96f9	0.0116937095
36	0x3d81bdaa	0.06335004
37	0xbd0cc5a5	-0.034368176
38	0x3da98fdc	0.08279392
39	0x3db719f0	0.08940494
40	0xbd28d079	-0.04121444
41	0xbe253496	-0.16133341
42	0xbd5581f1	-0.052125875
43	0x3dd6093c	0.1045098
44	0xbe0b2e92	-0.13591984
45	0xbdcae16f	-0.09906279
46	0xbc994e50	-0.0187141
47	0xbd89536e	-0.06705366
48	0xbe47fbca	-0.19529644
49	0xbcee554c	-0.029093407
50	0xbd69567e	-0.05696725
51	0x3ccd1b1c	0.02503734
52	0xbdb8eec2	-0.090299144
53	0xbd2c9094	-0.042130068
54	0xbd58ae13	-0.052900385
55	0xbd3defe1	-0.046371344
56	0x3c56b103	0.013103726
57	0x3d8dceb7	0.06924193
58	0x3d8351be	0.064120755
59	0xbc182929	-0.009287157
60	0xbc8ee902	-0.017445091
61	0xbc399bce	-0.011328651
62	0xbc611b16	-0.013739368
63	0x3d732aab	0.059366863
64	0x3c6e11b0	0.014530584
65	0xbd9d76b0	-0.076886535
66	0xbe0d3a35	-0.13791735
67	0xbdd73b1b	-0.1050932
68	0xbd022fb7	-0.031783786
69	0xbdab9190	-0.08377373
70	0x3bf27930	0.0073997006
71	0xbdb8964e	-0.09013043
72	0x3d8f0309	0.06983001
73	0x3c496b9d	0.012293723
74	0x3a16b8b6	0.000574957
75	0x3daba5d2	0.08381237
76	0x3ce36169	0.02775641
77	0x3d5ad455	0.05342515
78	0xbd964931	-0.07338179
79	0x3c2b3a37	0.010450891
80	0x3cb2b06f	0.021812646
81	0xbd9e8780	-0.07740688
82	0xbd758eb0	-0.05995053
83	0xbd932619	-0.07185001
84	0x3dbec6f1	0.09315289
85	0x3c33fc82	0.0109854955
86	0xbbbd0bcd	-0.005769229
87	0xbde092a4	-0.109654695
88	0xbbe04273	-0.006843859
89	0xbcd3834a	-0.02581944
90	0x3c82a063	0.015945619
91	0xbb629c52	-0.0034578037
92	0x3d6b3885	0.057426948
93	0xbc87d6f7	-0.016581995
94	0xbd3e66d5	-0.046484787
95	0xbd7690c4	-0.060196653
96	0x3cf04469	0.029329496
97	0xbd48e7b0	-0.04904908
98	0x3d7276da	0.059195377
99	0x3d848969	0.064715214
100	0xbd99d04c	-0.075104326
101	0xbd8cfaa2	-0.06883742
102	0xbd3ffdf8	-0.046873063
103	0xba8bc8b9	-0.0010664678
104	0xbb69e74d	-0.0035690845
105	0xbcae779a	-0.021297265
106	0x3da172b3	0.07883205
107	0x3c58f3bd	0.0132417055
108	0x3d882bba	0.06648965
109	0xbc11ce4b	-0.008899282
110	0x3d7fd85e	0.062462203
111	0xbd70ef7a	-0.058822133
112	0x3d355ebb	0.044279795
113	0x3c719a74	0.014746297
114	0x3d5086df	0.050909873
115	0x3dd5cede	0.104398474
116	0xbc86c1a4	-0.016449757
117	0xbd836b75	-0.0641698
118	0xbdf18e9f	-0.11794781
119	0xbe23a8c4	-0.15982348
120	0x3c1c6270	0.009544954
121	0x3d9012a7	0.07034808
122	0xbd91f6a7	-0.07127123
123	0x3cebcb0b	0.028783342
124	0xbe0517c6	-0.1299735
125	0x3da35111	0.079744466
126	0xbd0fd1a1	-0.035112027
127	0xbe02babf	-0.1276655
128	0x3d9b2349	0.075750895
129	0x3d171bc6	0.03689172
130	0x3d93d8b1	0.07219065
131	0x3cbe6467	0.023241235
132	0xbd0c538b	-0.03425936
133	0xbdf221e4	-0.118228704
134	0xbd7de039	-0.061981414
135	0x3bfff9c9	0.007811759
136	0xbd7a7a08	-0.061151534
137	0x3deb6114	0.114931256
138	0x3d4cdfec	0.050018236
139	0x3d7bfade	0.061518542
140	0x3d795b14	0.060877874
141	0x3d620272	0.055178113
142	0xbdb372a2	-0.08762099
143	0xbd3cca38	-0.04609129
144	0x3d962263	0.073307775
145	0xbd2ff03d	-0.04295372
146	0x3d871944	0.06596616
147	0x3ca7b74c	0.020473145
148	0xbab5a584	-0.0013858532
149	0xbd01ae6f	-0.031660493
150	0xbb7fc0b3	-0.003902477
151	0xbcdbbb53	-0.026822722
152	0xbcf53020	-0.029930174
153	0x3bbc4ecf	0.0057466994
154	0x3d2cd286	0.04219296
155	0x3c71e414	0.014763851
156	0x3ccadcff	0.024763582
157	0xbc02c280	-0.007980943
158	0xbdd8d8ca	-0.10588224
159	0xbcba7877	-0.02276252
160	0xbc4b39a3	-0.012403878
161	0xbd82bb05	-0.063833274
162	0xbe42feb7	-0.19042479
163	0x3ce32f26	0.027732443
164	0x3b7eadd9	0.0038860945
165	0x3da2f23b	0.07956358
166	0xbd3f652f	-0.046727356
167	0xbd4f0b80	-0.050548077
168	0x3c8b5ef5	0.017013052
169	0xbce93410	-0.028467208
170	0xbde25a3b	-0.11052366
171	0xbe19e5da	-0.15029088
172	0x3c4acf9f	0.012378602
173	0x3d43b79f	0.047782537
174	0x3c9125dd	0.01771825
175	0xbdd113c3	-0.102088474
176	0x3c58f4ca	0.013241956
177	0xba6f2fad	-0.0009124231
178	0xbd5197cf	-0.051170167
179	0x3ddc27fe	0.107498154
180	0x3d87e2c6	0.066350505
181	0x3c75d3c6	0.015004104
182	0xbd90240c	-0.070381254
183	0x3d2abe96	0.041685663
184	0x3b6870d9	0.0035467653
185	0xbd01f3e5	-0.031726737
186	0xbda5a4bf	-0.080880634
187	0xbdb8c66b	-0.0902222
188	0x3c0d8f48	0.008640118
189	0xbcd34f88	-0.02579476
190	0x3cd9abbb	0.026571145
191	0xbc941187	-0.018074764
192	0x3d526b32	0.05137176
193	0x3e0cf8bc	0.1376676
194	0x3cd0f03b	0.025505176
195	0xbc658f66	-0.01401124
196	0x3ba86005	0.0051383995
197	0xbd30aa28	-0.043131024
198	0xbde68b79	-0.11257071
199	0x3dc14748	0.09437424
200	0xbd924761	-0.07142521
201	0x3db58666	0.08863525
202	0xbd8df078	-0.069306314
203	0xbd548bb1	-0.051891033
204	0xbdcb0e70	-0.09914863
205	0x3c4b6af3	0.012415635
206	0xbcf2fde0	-0.029662073
207	0xbd25e1e2	-0.04049862
208	0x3b614312	0.0034372252
209	0xbc8b6f61	-0.017020883
210	0x3c34eb11	0.011042372
211	0xbde7d73d	-0.1132035
212	0xbb976a62	-0.004620836
213	0x3d6ee8c9	0.05832747
214	0xbdb9452b	-0.09046396
215	0x3dce64ff	0.10077857
216	0xbcd0066c	-0.025393687
217	0x3d648aeb	0.055796545
218	0xbdab2f97	-0.083586864
219	0x3d870a4b	0.0659376
220	0xbbc97994	-0.0061485264
221	0x3cbc2302	0.022965912
222	0x3cdbeb9d	0.026845748
223	0x3cdc4999	0.026890563
224	0x3c6d2c10	0.014475837
225	0xbd6af2c9	-0.057360444
226	0xbdd905c8	-0.10596806
227	0xbde15e41	-0.11004306
228	0xbce72c28	-0.028219298
229	0xbd4e358a	-0.050344028
230	0x3bc4032a	0.0059818225
231	0x3dd66669	0.10468752
232	0xbd2ea834	-0.04264088
233	0x3ce44be4	0.027868219
234	0xbdc224d8	-0.09479684
235	0x3af12fe3	0.0018401112
236	0x3d9dc527	0.077036195
237	0x3c69a93f	0.014261543
238	0xbb3735d6	-0.0027955673
239	0x3d95ba16	0.07310884
240	0x3d8fe85b	0.0702674
241	0xbe382e59	-0.1798643
242	0xbd31de6f	-0.04342502
243	0xbdabe5f7	-0.08393472
244	0xbd111fd3	-0.03543074
245	0x3d9611b7	0.073275976
246	0xbd76440b	-0.060123485
247	0x3d9a78b5	0.07542554
248	0xbb552677	-0.0032524148
249	0x3d294b4d	0.041331578
250	0xbc9cf86d	-0.019161427
251	0xbd3ce99b	-0.04612122
252	0xbd32bc5f	-0.043636676
253	0xbd1456df	-0.03621566
254	0x3bc7a035	0.006092096
255	0xbcabc0b6	-0.020965915

layers.2.bias f4 [10]
0	0x3e02da49	0.12778582
1	0xbe87614a	-0.26441413
2	0xbe34bf44	-0.17651087
3	0x3cb12434	0.021623708
4	0xbdcee97e	-0.10103129
5	0xbe6cf64f	-0.23140834
6	0x3d00af1b	0.031416994
7	0xbe44e577	-0.19228159
8	0x3ee5bf86	0.44872683
9	0x3d948e68	0.07253724
